Explanation/pretrianedModel/csi300_NRSR_3/model.bin (torch, 159653 bytes, 10 tensors)

W f4 [230, 1]
0	0xbdf277e9	-0.11839277
1	0xbd2fced7	-0.042921867
2	0x3b37bfd7	0.002803793
3	0x3d811358	0.06302518
4	0xbbe71453	-0.0070519834
5	0xbd313756	-0.043265663
6	0x3e7e2d24	0.24821907
7	0xbe74cc22	-0.23905995
8	0x3d743a24	0.05962576
9	0x3dc47b65	0.09593848
10	0xbe80fe81	-0.2519417
11	0xbe2e07fb	-0.16995232
12	0xbd9cd9ae	-0.076587066
13	0xbbb89d70	-0.0056340024
14	0xbd7d23dc	-0.061801776
15	0x3cea77a6	0.028621506
16	0x3dc6873c	0.09693763
17	0xbd9d1b65	-0.07671241
18	0xbe78540f	-0.24250816
19	0x3d919cce	0.07109986
20	0x3d3bfb93	0.045894217
21	0xbdd97eaa	-0.106198624
22	0x3daa4a2b	0.08314928
23	0xbd754e14	-0.059888914
24	0xbe0ec5b9	-0.13942613
25	0xbd9db99b	-0.07701417
26	0x3e4e4f43	0.20147423
27	0x3e38eaae	0.18058273
28	0x3d54de5a	0.051969863
29	0xbc89cd23	-0.01682145
30	0x3cc898a7	0.024486853
31	0x3e655469	0.22395481
32	0xbc7cf9c2	-0.015440406
33	0xbdcdd91b	-0.10051175
34	0x3dbd4a14	0.09242645
35	0x3e99a203	0.30006418
36	0xbd9103b9	-0.07080788
37	0xbea8bf6f	-0.32958552
38	0xbdc0332e	-0.09384762
39	0x3e7fdbb4	0.24986154
40	0x3e224f80	0.1585064
41	0x3e02b3bc	0.12763876
42	0xbd7e6472	-0.06210751
43	0xbe0aaadb	-0.13541739
44	0x3e0b9cea	0.13634077
45	0x3e681c34	0.22667009
46	0xbe2a68ce	-0.16641542
47	0x3e394c39	0.18095483
48	0xbdb22d54	-0.08700052
49	0x3d6faede	0.058516376
50	0xbc7a4336	-0.015274813
51	0xbe5c7490	-0.2152884
52	0xbca08d2c	-0.019598566
53	0xbd5bcc2f	-0.05366152
54	0x3e5b0750	0.21389508
55	0x3e461a4a	0.19345966
56	0x3d8acb47	0.06777053
57	0x3e511493	0.20418005
58	0x3da0aef8	0.07845873
59	0xbe182902	-0.14859393
60	0xbe0c10c9	-0.13678278
61	0xbe848b80	-0.2588768
62	0xbce93ac0	-0.028470397
63	0x3e983692	0.29729134
64	0xbde6112a	-0.112337425
65	0xbcc31ce8	-0.023817495
66	0x3e3109e7	0.17288934
67	0xbdb01e3e	-0.08599518
68	0xbcb82792	-0.022479806
69	0x3d75258a	0.059850253
70	0x3ebf7742	0.37395674
71	0xbb97c2f3	-0.004631394
72	0x3d7a7f14	0.061156347
73	0xbe4c7a4a	-0.19968525
74	0xbcdbd3e6	-0.02683444
75	0x3c6fdb68	0.014639713
76	0xbe45731c	-0.19282192
77	0x3e4345ee	0.19069645
78	0xbe859bc4	-0.26095402
79	0xbd11a002	-0.035552986
80	0xbd1de0f8	-0.038544625
81	0xbcf0ef8a	-0.029411096
82	0xbdf634f6	-0.1202182
83	0xbde82e39	-0.11336941
84	0xbe1988ef	-0.14993642
85	0x3d42071e	0.04737007
86	0x3e49bdfc	0.1970138
87	0x3e5f079a	0.21780244
88	0xbc6c53bd	-0.014424262
89	0x3a78f40d	0.00094968156
90	0xbe880fc3	-0.26574525
91	0xbe361f49	-0.17785372
92	0xbddf6eb0	-0.10909784
93	0xbe5ffbd9	-0.21873416
94	0xbe0d50c6	-0.13800344
95	0xbefa74fa	-0.4891737
96	0xbdc5529f	-0.09634899
97	0x3d400ed2	0.046889134
98	0xbdf3a808	-0.11897284
99	0x3bbf8d0e	0.0058456725
100	0x3e9cf222	0.30653483
101	0x3e34570c	0.17611331
102	0xbd07766b	-0.033071917
103	0x3ec0df82	0.37670523
104	0xbe82c5d7	-0.25541565
105	0xbe0d5144	-0.13800532
106	0x3c6b0508	0.014344461
107	0x3e53c204	0.2067948
108	0x3d6d56b3	0.05794401
109	0xbe5a3bf9	-0.2131194
110	0x3e7417b4	0.23837167
111	0xbdce6262	-0.10077359
112	0x3d133e01	0.035947803
113	0xbe15371a	-0.14571801
114	0xbdcc3270	-0.09970558
115	0xbe049f36	-0.12951359
116	0x3eb19f5e	0.346919
117	0xbdbe1c59	-0.09282751
118	0xbd1bf8bd	-0.038079012
119	0x3e3b79c4	0.18308169
120	0x3c8265ea	0.015917737
121	0x3d8ea2c6	0.0696464
122	0x3cacd47b	0.021097412
123	0x3d9eda38	0.07756466
124	0x3e23872e	0.15969536
125	0xbc7e7f50	-0.015533283
126	0x3db72134	0.0894188
127	0x3e219889	0.15780844
128	0x3cc7e316	0.024400275
129	0xbedf090e	-0.43561596
130	0x3ec0a09f	0.37622544
131	0x3d6d58c4	0.05794598
132	0xbe282bf8	-0.16423023
133	0xbd207b18	-0.03917989
134	0x3df100e2	0.117677465
135	0x3d93162e	0.07181965
136	0x3da7cd19	0.08193416
137	0xbe67bf8d	-0.22631665
138	0xbe4b2052	-0.19836548
139	0xbd396866	-0.045265578
140	0x3b183bd3	0.0023229017
141	0xbd9b4e21	-0.07583261
142	0x3da27566	0.07932548
143	0xbd753bb8	-0.059871405
144	0xbe2411dd	-0.1602244
145	0x3d5a3c93	0.053280424
146	0xbe49512e	-0.19659874
147	0x3f7bc9c7	0.9835476
148	0xbd49c21e	-0.04925739
149	0x3c25e225	0.010124718
150	0x3dc20ff4	0.09475699
151	0xbda657b5	-0.081221975
152	0xbeb6597a	-0.3561514
153	0xbe29769b	-0.1654915
154	0x3e0ed12b	0.13946979
155	0xbe41ba64	-0.18918759
156	0xbecec644	-0.4038564
157	0xbc849d43	-0.01618827
158	0x3f4baf74	0.79564595
159	0x3d9272b6	0.071507856
160	0xbd307bc5	-0.043086786
161	0xbe7c3d62	-0.2463279
162	0xbb960edf	-0.0045794095
163	0xbebe90c6	-0.37219828
164	0xbe3cf760	-0.18453741
165	0xbe24e904	-0.16104513
166	0xbecd534d	-0.40102616
167	0x3eeb8f8f	0.46007964
168	0x3e20d4c5	0.15706165
169	0xbf04dff2	-0.51904213
170	0x3e849df4	0.2590176
171	0xbdc25631	-0.09489096
172	0x3d354131	0.044251624
173	0xbca49372	-0.020089839
174	0x3f8b014f	1.0859774
175	0xbdc65fca	-0.09686239
176	0x3f0e995b	0.5570275
177	0xbecd55b8	-0.4010446
178	0xbec1c706	-0.37847155
179	0x3e551c6d	0.20811625
180	0x3f53007c	0.82422614
181	0xbeca67bc	-0.39532268
182	0x3e56eb78	0.20988262
183	0xbebad1d9	-0.36488226
184	0x3f0098cb	0.50233144
185	0xbe13aafb	-0.14420693
186	0x3e8980f5	0.268562
187	0x3d267836	0.040641986
188	0x3c7cb956	0.015425047
189	0x3ee93d86	0.4555475
190	0x3cf8db7d	0.030378098
191	0xbe33c2b7	-0.17554747
192	0xbe14c4e8	-0.14528239
193	0x3f003bb7	0.5009112
194	0xbea0624c	-0.31324995
195	0xbe46c586	-0.19411287
196	0xbdcad463	-0.09903791
197	0xbf270f48	-0.6525769
198	0x3dc79380	0.0974493
199	0x3e1b7f7a	0.15185347
200	0xbe4e9820	-0.20175219
201	0x3f36ddae	0.71432006
202	0xbf036157	-0.51320404
203	0x3eee5838	0.4655168
204	0x3f753904	0.95790124
205	0x3e610c8b	0.21977441
206	0x3dddff36	0.10839693
207	0xbda557bc	-0.08073375
208	0xbd741c38	-0.059597224
209	0xbe34319f	-0.17597054
210	0x3d26c4e3	0.04071511
211	0x3e8fbce2	0.28073794
212	0xbf4153b3	-0.7551834
213	0xbf4ca408	-0.7993779
214	0xbe187e3f	-0.14891909
215	0xbe99aad9	-0.3001316
216	0x3d07094b	0.032967847
217	0xbe2f7cc2	-0.17137435
218	0xbef51ed3	-0.4787508
219	0x3e08d014	0.13360626
220	0xbea66270	-0.32496977
221	0xbe12138f	-0.14265274
222	0xbdddfe44	-0.10839513
223	0xbe741d8f	-0.238394
224	0x3e26087f	0.16214179
225	0x3d7371d4	0.059434727
226	0x3d2cbc2b	0.04217164
227	0x3d90ac1f	0.070640795
228	0x3c3d252c	0.011544507
229	0xbe136132	-0.14392546

rnn.weight_ih_l0 f4 [192, 6]
0	0x3de9070f	0.113782994
1	0xbd141303	-0.036150943
2	0x3e660860	0.22464132
3	0x3de49a64	0.1116226
4	0xbd813d04	-0.06310466
5	0x3eac07da	0.3359974
6	0x3d11d94a	0.035607614
7	0x3a07edf5	0.00051852997
8	0xbdceab03	-0.10091212
9	0x3e9dc448	0.30813813
10	0x3d0f12f0	0.03493017
11	0x3cbc8612	0.023013148
12	0xbe4d00b3	-0.20019798
13	0xbe30b006	-0.17254648
14	0xbe4254d2	-0.18977669
15	0x3e1422a4	0.1446634
16	0xbd37b804	-0.044853225
17	0x3eb4535b	0.35219845
18	0x3eb713b5	0.35757223
19	0x3f146440	0.5796547
20	0x3da80c66	0.0820549
21	0x3e92ac8c	0.28647268
22	0xbdf78e42	-0.120876804
23	0x3da0638a	0.078314856
24	0x3eb31bfa	0.34982282
25	0x3e2b8215	0.16748841
26	0x3e918104	0.28418744
27	0x3e5edcd9	0.21763934
28	0x3db9b8eb	0.090684734
29	0xbcdd9608	-0.02704908
30	0xbe8ec352	-0.27883393
31	0xbd7473ac	-0.059680626
32	0xbe8e52d0	-0.27797556
33	0x3c5c1362	0.013432356
34	0xbd790adc	-0.060801372
35	0xbe042b25	-0.12907083
36	0x3e9a049b	0.3008164
37	0x3db04b46	0.08608107
38	0x3e388302	0.18018726
39	0x3d82752e	0.063700065
40	0x3d8c4848	0.06849724
41	0xbccb8dae	-0.024847832
42	0xbd8b0da9	-0.06789715
43	0xbdf21f7c	-0.118224114
44	0x3e0ee0df	0.13952969
45	0xbd83fff3	-0.06445303
46	0x3dcf95b7	0.10135978
47	0x3e9f218f	0.3108029
48	0xbd5edcf8	-0.05440995
49	0x3e0c8544	0.13722712
50	0xbe955528	-0.29166532
51	0x3e1a7e64	0.15087277
52	0x3c0283c0	0.007965982
53	0x3c16bbc3	0.009200039
54	0x3e3a7a07	0.18210612
55	0x3dc96dd2	0.098354
56	0xbd0514b4	-0.032490447
57	0x3e200958	0.15628564
58	0xbd2aefd4	-0.041732624
59	0xbea37fbe	-0.31933397
60	0xbd19a7c4	-0.03751351
61	0x3d1363f8	0.03598401
62	0x3e2286e6	0.15871772
63	0x3e151b98	0.14561307
64	0x3dde1ebb	0.10845705
65	0xbd8bedf8	-0.06832498
66	0x3e0478f8	0.12936771
67	0xbdf3b2e8	-0.11899358
68	0x3d33db97	0.04391059
69	0xbd9eec86	-0.07759957
70	0x3d44ea2c	0.048074886
71	0xbe028042	-0.12744239
72	0xbe9296c7	-0.2863066
73	0xbe1f2f3e	-0.15545365
74	0xbd60be99	-0.054869268
75	0x3e4cbccf	0.199939
76	0x3da756c2	0.081708446
77	0x3e66a410	0.22523522
78	0xbc6ab190	-0.014324561
79	0x3df92328	0.12164909
80	0xbdbf30a2	-0.09335448
81	0x3e53f126	0.2069746
82	0x3d8de66c	0.06928715
83	0xbea63d0f	-0.3246846
84	0x3e8d4a54	0.2759577
85	0xbe550065	-0.20800932
86	0x3db61aa5	0.08891801
87	0xbd41efa0	-0.047347665
88	0x3dfdd32a	0.12393792
89	0xbe7d9f8f	-0.24767898
90	0x3e018e82	0.12652019
91	0xbcfc85a8	-0.030825451
92	0x3a80c366	0.0009823858
93	0xbda2f923	-0.07957675
94	0x3dd71661	0.10502315
95	0x3ef4b3a3	0.47793302
96	0x3dad33be	0.08457135
97	0x3e45551f	0.19270752
98	0x3db17e20	0.086666346
99	0x3e8845ff	0.26615903
100	0x3d97d6ee	0.074140415
101	0x3eed7bd2	0.4638353
102	0x3d4fd88b	0.05074362
103	0xbe0a31c3	-0.13495545
104	0x3eaa3604	0.33244336
105	0xbcaeadb5	-0.021323064
106	0x3d5de50c	0.054173514
107	0xbde10947	-0.10988098
108	0x3e926451	0.2859216
109	0x3e7ece0b	0.24883287
110	0x3cacc677	0.02109073
111	0xbe42886d	-0.18997355
112	0xbdb52dc4	-0.0884662
113	0x3e05f905	0.13083275
114	0xbe4474db	-0.19185202
115	0xbc8c8f5b	-0.017158201
116	0xbe96c0c1	-0.29443935
117	0xbc2ef038	-0.01067739
118	0x3dfc7bf6	0.12328331
119	0xbe55915c	-0.20856231
120	0xbe0a0a3c	-0.13480467
121	0x3c682ab2	0.014170336
122	0xbaa2c702	-0.0012418928
123	0xbd557061	-0.052109126
124	0xbdfa7520	-0.12229371
125	0x3e36bbec	0.17845124
126	0xbe4ccc2e	-0.19999763
127	0x3bdb06dd	0.006684168
128	0x3e209488	0.1568166
129	0xbe7634eb	-0.24043624
130	0xbcc9a9f9	-0.024617182
131	0x3e1cf943	0.15329461
132	0x3e89772a	0.26848727
133	0xbd4a4fa3	-0.049392354
134	0xbd37b99d	-0.04485475
135	0x3e178cc5	0.14799793
136	0x3d96029a	0.07324715
137	0xbe6a8f6c	-0.22906274
138	0xbce26758	-0.027637169
139	0xbe2402fe	-0.16016766
140	0xbe108b69	-0.14115681
141	0xbd7447f3	-0.05963893
142	0x3d3c28d4	0.045937374
143	0xbe4af055	-0.19818242
144	0xbde35746	-0.111006305
145	0x3df626e2	0.12019135
146	0x3c7eb4a8	0.0155460015
147	0xbd867a57	-0.06566303
148	0xbd350611	-0.04419524
149	0x3d04a403	0.032382976
150	0x3dd82168	0.10553247
151	0x3d39f3ca	0.04539851
152	0x3e265a4c	0.16245383
153	0x3ec94e70	0.39317656
154	0xbcfabea0	-0.030608475
155	0xbd9952c0	-0.074864864
156	0x3dd830cb	0.105561815
157	0x3e5dc4e6	0.21657142
158	0x3e5c7cce	0.21531984
159	0x3eac4056	0.33642834
160	0x3dbe3658	0.09287709
161	0xbcdb75c2	-0.02678955
162	0x3e204b9a	0.1565384
163	0xbe3a6ceb	-0.18205611
164	0xbdbf7b6d	-0.093497135
165	0x3cc5e06b	0.024154862
166	0xbb3e5b80	-0.0029046237
167	0xbef9b111	-0.48767903
168	0xbe48c80c	-0.19607562
169	0x3ced50f7	0.028969271
170	0xbe3aaf2c	-0.18230885
171	0xbe6751b8	-0.22589767
172	0xbcb440d8	-0.022003576
173	0x3c53cfef	0.012927993
174	0xbc68e300	-0.014214277
175	0x3df4fa2d	0.1196178
176	0xbdae017c	-0.08496377
177	0x3d33f4f4	0.043934777
178	0xbd637e51	-0.055540387
179	0xbd5ab9e3	-0.05339993
180	0x3e07670b	0.13222902
181	0xbd10c5ef	-0.035345014
182	0x3e89880a	0.26861602
183	0x3d9c92aa	0.076451614
184	0xbd484e58	-0.04890284
185	0x3e8a89a5	0.2705814
186	0x3eb0095f	0.3438215
187	0xbd921ecb	-0.071347795
188	0xbdeb5f9f	-0.11492848
189	0xbd9d691f	-0.07686066
190	0xbdc1dcd4	-0.09465948
191	0x3c8b9305	0.017037878
192	0x3cb080de	0.021545824
193	0x3d3e6b1d	0.04648887
194	0x3df1d5c3	0.1180835
195	0xbe412958	-0.18863428
196	0xbd9fad20	-0.07796693
197	0x3e44db2f	0.19224237
198	0x3eac90bc	0.33704174
199	0xbdcdeeff	-0.100553505
200	0x3dbb19c1	0.091357715
201	0x3d99d32f	0.07510983
202	0xbd005224	-0.031328335
203	0x3da52e31	0.08065451
204	0x3c935f75	0.017989853
205	0xbde19b6a	-0.11015971
206	0xbd303399	-0.043017957
207	0x3dd5e8c6	0.10444789
208	0xbd269a68	-0.040674597
209	0xbe2aa93d	-0.16666122
210	0x3e07c49a	0.13258591
211	0x3d3eafc1	0.04655433
212	0x3e9c50fd	0.3053054
213	0x3cfc9beb	0.030836066
214	0xbce77bb0	-0.028257221
215	0xbea08689	-0.31352642
216	0xbdfe5468	-0.12418443
217	0xbdad8e26	-0.08474378
218	0xbe43ab38	-0.19108284
219	0xbdf01eae	-0.11724602
220	0xbd279900	-0.040917397
221	0x3d5f0b63	0.05445422
222	0xbe11a215	-0.14221986
223	0xbde3674d	-0.111036874
224	0xbd8b1754	-0.06791559
225	0xbd52421a	-0.05133257
226	0xbdc12379	-0.09430594
227	0xbde9f08e	-0.11422835
228	0xbe980ef4	-0.29698908
229	0xbdc94dbb	-0.09829279
230	0xbeb800b1	-0.35938028
231	0xbe7a2f1e	-0.24432036
232	0x3c2296e0	0.009923667
233	0x3eac7da0	0.33689594
234	0xbcdc8103	-0.026916986
235	0x3ea8d49b	0.32974705
236	0x3e98f13c	0.29871547
237	0x3e8a193a	0.2697237
238	0xbd9697ea	-0.07353194
239	0x3e9eceb0	0.31017065
240	0xbe03dd9c	-0.12877506
241	0x3da23041	0.0791936
242	0x3e68da5a	0.22739545
243	0xbea8077c	-0.3281821
244	0xbd0a6be0	-0.033794284
245	0xbe992213	-0.2990881
246	0x3e93a321	0.28835395
247	0x3e4857f7	0.19564806
248	0x3f2ef473	0.6834175
249	0x3e908d3d	0.28232756
250	0x3dffc364	0.1248844
251	0x3e4afb64	0.1982246
252	0xbd1cb1f6	-0.038255654
253	0x3c17b824	0.009260211
254	0xbe36c6c1	-0.17849256
255	0x3dcce763	0.10005071

rnn.weight_hh_l0 f4 [192, 64]
0	0xbd5755a4	-0.052571908
1	0x3bf3c29e	0.0074389717
2	0xbdb1eaf7	-0.08687394
3	0xbe926bf8	-0.28598
4	0x3d0d7fc4	0.034545675
5	0x3df0f69e	0.117657885
6	0xbe536ed8	-0.20647752
7	0x3e639540	0.22224903
8	0x3dba03d4	0.090827614
9	0xbdb70098	-0.0893566
10	0xbe29b878	-0.16574275
11	0xbcb7ca8d	-0.02243545
12	0x3dcc1092	0.09964098
13	0x3ba971da	0.005171043
14	0xbda030d0	-0.0782181
15	0xbe32d8ca	-0.17465511
16	0xbd2cfafe	-0.042231552
17	0x3e81b58b	0.2533382
18	0x3e4c38e9	0.19943585
19	0x3cd9920d	0.0265589
20	0xbdfcf0ce	-0.12350617
21	0x3e2d2c4e	0.16911432
22	0x3d06379d	0.03276788
23	0x3df5ca20	0.12001443
24	0xbc193731	-0.009351538
25	0xbe6c859a	-0.2309784
26	0xbd7dd6a2	-0.061972268
27	0x3d351ca6	0.044216774
28	0x3d16c100	0.036805153
29	0xbdaed63c	-0.08536956
30	0xbe15b155	-0.14618428
31	0x3d23cbaf	0.03998917
32	0x3e2213b3	0.15827827
33	0x3d4af6d8	0.049551815
34	0x3ced145c	0.028940372
35	0x3d813407	0.063087516
36	0x3d1ceab2	0.03830976
37	0xbde12e06	-0.109951064
38	0xbe03690b	-0.1283304
39	0x3dce7766	0.10081367
40	0x3e12c04e	0.14331171
41	0x3da728fa	0.081621125
42	0x3da740a7	0.08166628
43	0xbd144af7	-0.036204305
44	0x3d676580	0.056493282
45	0xbe060c7e	-0.13090703
46	0xbdb30940	-0.08741999
47	0xbcac8e9e	-0.021064099
48	0x3d3a6f97	0.045516577
49	0xbb24914b	-0.0025111015
50	0xbc89983d	-0.016796226
51	0x3dab1bd1	0.08354915
52	0xbe128057	-0.1430677
53	0x3d816d4a	0.06319673
54	0x3b42d27a	0.0029727505
55	0xbd4f9116	-0.050675474
56	0xbcaec036	-0.021331888
57	0xbe32bc36	-0.1745461
58	0xbdcd4233	-0.10022392
59	0xbd91f3b6	-0.07126562
60	0x3e3702be	0.1787214
61	0xbe0bda4b	-0.13657491
62	0x3da9ccc0	0.08291006
63	0x3e3d85d4	0.18508083
64	0x3cbaf657	0.022822542
65	0xbebef8a2	-0.37299067
66	0xbd9c908f	-0.0764476
67	0xbe72beeb	-0.23705642
68	0x3e091b75	0.1338938
69	0x3e6ad51b	0.22932856
70	0x3cf4a49b	0.029863646
71	0xbd139d5c	-0.03603874
72	0x3e047f0a	0.12939087
73	0x3ccc6189	0.024948852
74	0xbdd06038	-0.10174602
75	0x3d243bb9	0.04009602
76	0xbe2faabf	-0.17154978
77	0x3e29f82a	0.16598573
78	0x3e3d020c	0.18457812
79	0x3e44f003	0.19232182
80	0xbdf150c8	-0.11782986
81	0x3dd68333	0.10474243
82	0x3eaad8b4	0.33368456
83	0x3c81de61	0.015853109
84	0x3cd2ac37	0.025716884
85	0x3c85ad5f	0.016318021
86	0xbde15c00	-0.11003876
87	0x3e809aeb	0.25118193
88	0x3d52558e	0.051351123
89	0x3d667b00	0.056269646
90	0xbe0e4a9a	-0.13895646
91	0x3dd75e20	0.10516
92	0xbcaa59f6	-0.02079485
93	0xbe11601e	-0.14196822
94	0x3ce36dc4	0.027762301
95	0x3e4ad67a	0.19808379
96	0xbdda6ad8	-0.1066491
97	0x3d990ae7	0.074727826
98	0x3e03e5a3	0.12880568
99	0xbd10b57f	-0.03532934
100	0x3e022655	0.12709935
101	0xbe3c99e4	-0.1841808
102	0x3c0ff7a9	0.008787074
103	0x3eca3c23	0.39499006
104	0xbe1e43e8	-0.15455592
105	0x3ebf2755	0.37334695
106	0xbea2822d	-0.3173994
107	0x3e7a3811	0.2443545
108	0x3d30a4a4	0.043125764
109	0x3cf868f4	0.030323483
110	0xbe4c28e0	-0.19937468
111	0xbedcb210	-0.431046
112	0xbda01bbf	-0.07817792
113	0x3dda2fb9	0.106536336
114	0xbd411e31	-0.047147933
115	0xbd86a293	-0.06573977
116	0xbd96f188	-0.07370287
117	0xbe0920f8	-0.13391483
118	0x3d2b3515	0.04179867
119	0x3e9b46f2	0.30327564
120	0x3db5aed0	0.088712335
121	0xbe0de566	-0.1385704
122	0xbd29f6a7	-0.04149499
123	0x3df9a948	0.12190491
124	0x3dda5ef5	0.10662643
125	0xbe5def7c	-0.21673387
126	0x3e19d2b9	0.1502179
127	0x3ec00f3a	0.37511617
128	0x3d52a9ce	0.05143147
129	0xbd580241	-0.052736524
130	0xbdd9d0cf	-0.1063553
131	0xbe1cb421	-0.15303089
132	0x3e0bf71f	0.13668488
133	0x3e45f368	0.19331133
134	0xbe606658	-0.21914041
135	0xbed34367	-0.4126236
136	0x3d2562a9	0.040377293
137	0xbd829180	-0.06375408
138	0x3e14117d	0.14459796
139	0x3e57978d	0.21053906
140	0x3e42404e	0.18969843
141	0xbe97396c	-0.29535997
142	0xbdaa93db	-0.083289824
143	0xbe4cca87	-0.19999133
144	0x3eb3efa3	0.35143766
145	0xbe462d31	-0.19353177
146	0x3e0a72ae	0.1352031
147	0xbed2e9c3	-0.4119397
148	0x3d3ee0c5	0.046601076
149	0x3e27792c	0.16354817
150	0x3d164a25	0.036691803
151	0xbe51e377	-0.20496927
152	0xbdd1557e	-0.102213845
153	0xbcea1904	-0.028576382
154	0x3d9abecc	0.07555923
155	0x3d8ca48d	0.06867323
156	0x3e21226e	0.1573579
157	0x3e4c0706	0.19924554
158	0x3e6612e2	0.2246814
159	0xbd95f76e	-0.07322584
160	0x3e811460	0.25210857
161	0x3da10fd6	0.078643486
162	0xbd6fa495	-0.058506567
163	0xbdd501d8	-0.10400742
164	0xbda87f6b	-0.08227428
165	0x3e31723e	0.17328736
166	0xbd56bf46	-0.052428506
167	0xbe7c1fb4	-0.24621469
168	0x3d7d6fe6	0.061874293
169	0xbe82589e	-0.25458235
170	0x3e4688a0	0.19388056
171	0xbe34a82e	-0.1764228
172	0x3e6242cb	0.22095792
173	0xbde76254	-0.112980515
174	0x3d8eedaa	0.069789246
175	0xbc5f28fa	-0.013620609
176	0x3e2f6e0e	0.17131826
177	0x3da09aca	0.07842024
178	0x3da90b76	0.08254139
179	0x3e875a61	0.2643614
180	0x3ca1ba76	0.019742232
181	0xbd67bd63	-0.056577098
182	0xbecf9435	-0.4054276
183	0xbe5438b4	-0.20724756
184	0x3e363e98	0.17797315
185	0x3cc5cdf9	0.024146067
186	0xbc884432	-0.01663408
187	0xbdda9a37	-0.106739454
188	0x3cbff076	0.02343009
189	0xbcbb9214	-0.022896804
190	0x3d4a3935	0.049370963
191	0xbe0eab1c	-0.1393246
192	0xbc60ff34	-0.01373272
193	0x3cdcffe9	0.026977496
194	0xbe7250e9	-0.23663677
195	0x3d6083a5	0.054813046
196	0x3ce43b2c	0.027860247
197	0xbdb40dfa	-0.08791728
198	0xbd683a52	-0.056696244
199	0xbd539cc6	-0.051663183
200	0xbe0dca15	-0.1384662
201	0xbcdb087d	-0.026737446
202	0xbc9d1e0e	-0.01917937
203	0xbe7a2513	-0.24428205
204	0xbe3fe5af	-0.18739961
205	0x3dacc4ea	0.08435996
206	0xbd832da8	-0.064051926
207	0x3de08a83	0.10963919
208	0xbeb5d090	-0.35510683
209	0x3e733ab4	0.23752862
210	0xbe6274e7	-0.22114907
211	0x3e414803	0.18875127
212	0x3e3a2148	0.18176758
213	0xbe076d24	-0.13225228
214	0x3cf0cd95	0.029394904
215	0x3e243342	0.16035178
216	0xbb8d7e90	-0.004318066
217	0x3d0425cd	0.032262612
218	0x3dc7947a	0.097451165
219	0x3af8704b	0.0018954364
220	0xbe6dd7e0	-0.23226881
221	0xbe1bf3b9	-0.15229692
222	0x3e362eef	0.17791341
223	0x3e754c2a	0.23954836
224	0xbebf51fb	-0.37367234
225	0x3d8cb8bb	0.06871172
226	0x3da1b804	0.07896426
227	0x3ddf20fc	0.10894963
228	0xbe934063	-0.2876006
229	0xbb3422c2	-0.0027486538
230	0x3daf1087	0.08548074
231	0xbe9c6a8d	-0.30550042
232	0x3e14cf77	0.14532267
233	0xbd5407b7	-0.05176517
234	0xbd9b705e	-0.07589792
235	0x3e83c581	0.2573662
236	0xbd835d6a	-0.06414302
237	0xbd6b2c73	-0.057415437
238	0xbdffa4ad	-0.12482581
239	0xbe2db50e	-0.16963598
240	0xbe277586	-0.16353425
241	0xbdd0610c	-0.1017476
242	0xbe9c7658	-0.3055904
243	0xbe068cb9	-0.13139619
244	0xbe0f26c1	-0.13979627
245	0x3e31fcd6	0.17381606
246	0x3e061d2a	0.13097063
247	0x3e0d55dc	0.13802284
248	0xbe48fd32	-0.19627836
249	0xbe3525e2	-0.17690232
250	0x3e3f13a2	0.18659833
251	0x3d0c02a6	0.034182213
252	0x3df38ba5	0.118918695
253	0x3df5cfb4	0.12002507
254	0x3e1866eb	0.1488301
255	0x3e0ef9c1	0.13962461

rnn.bias_ih_l0 f4 [192]
0	0xbe193308	-0.14960873
1	0xbe52bc9a	-0.20579758
2	0xbdcbca41	-0.09950686
3	0xbd995db4	-0.074885756
4	0x3e13be4e	0.14428064
5	0xbd89bc30	-0.06725347
6	0x3afa5028	0.0019097375
7	0x3dd5e702	0.10444452
8	0xbd2b94b4	-0.04188986
9	0xbe8b9fb0	-0.2727027
10	0xbd37f8e0	-0.04491508
11	0x3dafdb86	0.08586793
12	0x3a885516	0.0010401334
13	0xbddf6df6	-0.10909645
14	0xbdfba7ed	-0.12287889
15	0x3e353dda	0.17699376
16	0x3d15b5e0	0.036550403
17	0x3e05e7f0	0.13076758
18	0x3d0dda40	0.034631968
19	0xbdedba7a	-0.11607833
20	0xbcba0d20	-0.022711337
21	0x3e6c10b7	0.23053251
22	0x3d50e7d6	0.051002346
23	0xbc68abcc	-0.014201116
24	0xbd90eb8d	-0.07076178
25	0xbe9eb0b8	-0.309942
26	0x3e4b03c2	0.19825652
27	0xbe5ea0b5	-0.21740992
28	0xbd5b9150	-0.053605378
29	0xbe2ed2d0	-0.17072606
30	0x3dca1f44	0.09869245
31	0x3d9854ec	0.074380726
32	0xbe09eb93	-0.1346877
33	0x3def46e3	0.116834424
34	0xbe144b12	-0.14481762
35	0xbe21d8d0	-0.15805364
36	0xbe22523e	-0.15851685
37	0xbdb8f0d2	-0.09030308
38	0x3dcf688a	0.10127361
39	0xbd49c0df	-0.0492562
40	0xbd0c3b7e	-0.034236424
41	0xbca2a140	-0.01985228
42	0xbd6de595	-0.058080275
43	0xbd50b47e	-0.05095338
44	0x3c214506	0.009843117
45	0xbd11023d	-0.035402525
46	0xbdb056ab	-0.086102806
47	0x3e884944	0.26618397
48	0xbe7257a5	-0.23666246
49	0x3d872a7b	0.065998994
50	0xbcb923e5	-0.022600124
51	0x3e54a9e1	0.20767929
52	0x3d4c48b3	0.04987402
53	0x3c7c87d9	0.015413248
54	0xbddfbd3b	-0.10924765
55	0xbe439e98	-0.19103467
56	0x3ca8fac2	0.020627383
57	0xbe144a37	-0.14481436
58	0x3d26c213	0.040712427
59	0x3d0fd659	0.035116527
60	0x3dde4f22	0.10854937
61	0xbddd9ce6	-0.108209416
62	0x3c9165d5	0.017748753
63	0x3cdd8242	0.02703965
64	0xbe44a35b	-0.1920294
65	0x3d51a064	0.05117835
66	0x3d057c20	0.032589078
67	0xbead29aa	-0.3382085
68	0xbd9b9fd0	-0.07598841
69	0xbdd9d740	-0.10636759
70	0xbe4d1f0f	-0.20031379
71	0xbe0c335d	-0.13691469
72	0xbd5f06ca	-0.054449834
73	0xbe11fff4	-0.14257795
74	0xbde5cfae	-0.112212524
75	0xbe19d8af	-0.15024064
76	0x3e516808	0.20449841
77	0xbe361e3a	-0.17784968
78	0xbe591975	-0.21201117
79	0xbacc9bf7	-0.0015610446
80	0xbd8fb497	-0.07016867
81	0xbe0d58c7	-0.13803397
82	0xbda1823e	-0.0788617
83	0x3e2d4af9	0.16923131
84	0xbd476b10	-0.048686087
85	0x3ef2eed1	0.47447827
86	0xbed83886	-0.42230624
87	0xbe6b6939	-0.22989358
88	0xbe7ad786	-0.24496278
89	0xbe744b8e	-0.23856947
90	0xbe551b2a	-0.20811144
91	0x3e3eed2d	0.18645163
92	0xbd435432	-0.047687717
93	0xbe9f1e77	-0.3107793
94	0xbd8fc21a	-0.07019444
95	0x3d9fc983	0.07802107
96	0xbe77428d	-0.24146481
97	0xbedfa5a8	-0.43681073
98	0x3e00594f	0.12534069
99	0xbdfb32d9	-0.12265558
100	0xbe58acc2	-0.21159652
101	0xbe14a989	-0.14517798
102	0x3dc3dfb2	0.09564151
103	0xbe77f9d2	-0.24216393
104	0xbf0d80c7	-0.55274624
105	0x3d93114a	0.07181032
106	0xbda47d38	-0.08031696
107	0xbdf14c38	-0.11782116
108	0xbe50a8e8	-0.20376933
109	0xbe424692	-0.18972233
110	0xbe78ada5	-0.2428499
111	0xbcdd55d7	-0.02701847
112	0xbe5ee5e1	-0.2176738
113	0xbd1c2ad5	-0.038126785
114	0xbe4df291	-0.20112063
115	0xbea7e46a	-0.32791454
116	0xbe0cbf15	-0.13744767
117	0xbddfd307	-0.10928922
118	0x3e1c5170	0.15265441
119	0xbeda405d	-0.4262723
120	0xbb5bf2bc	-0.003356143
121	0xbde347dc	-0.110976905
122	0x3cea021a	0.028565455
123	0xbe58d5e0	-0.21175337
124	0xbe5142dc	-0.20435661
125	0xbe03ed4f	-0.12883495
126	0x3e90310a	0.28162414
127	0xbe8610d8	-0.26184726
128	0x3ce81282	0.028329138
129	0x3e1fb3cc	0.15595931
130	0x3de62d43	0.11239102
131	0xbd6fc8c6	-0.05854108
132	0x3e505c49	0.20347704
133	0x3d711098	0.058853716
134	0x3dabafa2	0.08383109
135	0xbd71ed29	-0.059064064
136	0xbe0d3e3f	-0.13793276
137	0xbe21c990	-0.15799546
138	0xbd084bbc	-0.03327535
139	0x3d815a21	0.06316019
140	0x3ccb742d	0.02483567
141	0x3d2cc310	0.042178214
142	0xbc7e3eae	-0.015517874
143	0x3da35f94	0.079772145
144	0xbde55cde	-0.11199354
145	0xbe1b85df	-0.15187787
146	0xbde385f3	-0.11109533
147	0x3dcd84c4	0.10035089
148	0x3cccdfd7	0.025009079
149	0x3cea96c0	0.028636336
150	0x3df90f70	0.121611476
151	0xbddbd0ef	-0.1073321
152	0x3e15e4ab	0.14638011
153	0xbe01931b	-0.12653773
154	0xbdb69658	-0.089153945
155	0x3e0987a1	0.13430645
156	0x3dd08cc1	0.10183097
157	0x3d8fe8c0	0.070268154
158	0x3dafcd3c	0.08584067
159	0xbe11cf7e	-0.14239308
160	0xbd2b09e4	-0.04175748
161	0x3e2838f3	0.16427974
162	0x3d3b2f12	0.045699187
163	0x3e1091a6	0.1411806
164	0x3d75762e	0.059927158
165	0xbd623cd9	-0.05523381
166	0x3dc9da30	0.09856069
167	0xbdfd282a	-0.12361176
168	0x3daac81c	0.08338949
169	0xbe5484a8	-0.2075373
170	0x3ce94449	0.028474944
171	0xbe2eafc0	-0.17059231
172	0x3d09f488	0.03368047
173	0x3debeb5a	0.11519499
174	0x3d0b47e1	0.034004096
175	0xbdbb56da	-0.09147425
176	0xbc93359e	-0.017969903
177	0xbdd789e3	-0.10524347
178	0x3d150699	0.036383245
179	0xbcacd453	-0.021097338
180	0xbcadfcca	-0.021238703
181	0xbe0b29ed	-0.13590212
182	0xbd86d717	-0.06583994
183	0xbccf6405	-0.025316248
184	0x3d98835d	0.074469306
185	0xbdeb5daa	-0.114924744
186	0xbe25b29d	-0.16181417
187	0x3d0d4483	0.034489166
188	0xbe2768f8	-0.16348636
189	0xbd10f0c2	-0.035385855
190	0xbc9d517f	-0.0192039
191	0xbcc1ec85	-0.023672352

rnn.bias_hh_l0 f4 [192]
0	0xbd930cb6	-0.07180159
1	0xbe0dd03b	-0.13848965
2	0xbdbcd8de	-0.09221052
3	0x3db07d5e	0.08617662
4	0x3c825448	0.015909329
5	0xbdfe490c	-0.12416276
6	0x3de0be92	0.109738484
7	0xbd192358	-0.037387222
8	0xbdf6a5de	-0.120433554
9	0xbe91c3c1	-0.2846966
10	0xbd4f9626	-0.050680302
11	0x3e02f552	0.12788895
12	0xb9c55f68	-0.0003764585
13	0xbe774f66	-0.24151382
14	0xbc723e8f	-0.014785423
15	0x3e123892	0.14279392
16	0xbd0b7e5b	-0.03405605
17	0x3c2e68e0	0.010645121
18	0x3da3c6c2	0.079968944
19	0xbdc1e6f2	-0.094678774
20	0x3d9073c6	0.07053332
21	0x3e3f73db	0.18696539
22	0x3e7c2f0f	0.24627326
23	0xbc55a8de	-0.013040749
24	0xbc9c9a86	-0.019116651
25	0xbe319a32	-0.17343977
26	0x3dbaccb2	0.09121074
27	0xbdc810e0	-0.09768844
28	0x3e0f2a67	0.13981019
29	0xbe0d0f77	-0.1377543
30	0x3d5e1166	0.05421581
31	0x3c2485a2	0.010041626
32	0xbd53699a	-0.05161438
33	0x3d403dc8	0.04693392
34	0x3c5e7678	0.01357805
35	0xbcb17e4b	-0.021666666
36	0xbdb19838	-0.086716115
37	0x3d534101	0.051575664
38	0xbcf0c495	-0.029390613
39	0xbd32de14	-0.04366882
40	0xbdc6f744	-0.09715131
41	0xbd073f23	-0.033019196
42	0x3d967cc3	0.07348015
43	0x3cc59003	0.024116522
44	0xbc90bd69	-0.017668443
45	0xbdd85140	-0.10562372
46	0x3dde98fe	0.10869025
47	0x3cc30780	0.023807287
48	0xbdd09897	-0.10185354
49	0x3ccf4a27	0.025303913
50	0xbd2c48b4	-0.042061523
51	0x3e2682a4	0.16260773
52	0xbcf52ec4	-0.029929526
53	0x3d4a9472	0.049457975
54	0x3d0b64bb	0.03403161
55	0xbe4bb581	-0.19893457
56	0xbe0e2f27	-0.13885175
57	0xbe3be57b	-0.18349259
58	0x3b8494b2	0.004046046
59	0xbd85c5ee	-0.06531893
60	0x3d79e9b3	0.06101389
61	0xbdc6acb5	-0.0970091
62	0xbccd5ba1	-0.025068106
63	0x3e284c28	0.16435301
64	0xbe856503	-0.26053628
65	0x3e1861f6	0.14881119
66	0x3dbc4eac	0.09194693
67	0xbe3194c8	-0.17341912
68	0xbe56b9d2	-0.20969322
69	0xbe167712	-0.14693859
70	0xbe88a365	-0.2668716
71	0xbe98953f	-0.29801366
72	0xbcea7e1c	-0.028624587
73	0xbd7a35e6	-0.061086558
74	0xbe1844f0	-0.14870048
75	0xbdbad6be	-0.0912299
76	0x3ead5d03	0.33860025
77	0xbdd8d523	-0.105875276
78	0xbe4b3472	-0.19844225
79	0xbe647cf3	-0.2231329
80	0xbe8eb638	-0.27873397
81	0xbda0afd3	-0.07846036
82	0xbe4b52c1	-0.19855787
83	0x3c3bf968	0.011473037
84	0xbdef645a	-0.116890624
85	0x3ebe3aab	0.37154135
86	0xbe9d04df	-0.3066778
87	0xbe177a3a	-0.1479272
88	0xbe89bb52	-0.26900727
89	0xbe036d97	-0.12834774
90	0xbdadb53a	-0.08481832
91	0x3db40a63	0.087910436
92	0xbcd2502a	-0.02567299
93	0xbe640178	-0.22266185
94	0xbcfcb32c	-0.030847155
95	0xbda5be88	-0.080929816
96	0xbe1b5401	-0.15168764
97	0xbea0b263	-0.31386098
98	0x3b29f879	0.0025935455
99	0xbe20d6a9	-0.15706886
100	0xbe8a9ba1	-0.2707186
101	0xbd5d247b	-0.05398987
102	0xbe1bc06f	-0.15210126
103	0xbe552f6f	-0.20818876
104	0xbeb5bcf4	-0.35495722
105	0x3c972410	0.018449813
106	0x3d5c37d9	0.053764198
107	0xbe59a008	-0.21252453
108	0xbe4dbd9e	-0.20091864
109	0xbd03e6b3	-0.032202434
110	0xbe9817c2	-0.29705626
111	0xbe2fa654	-0.17153293
112	0xbdeb6102	-0.11493112
113	0x3d57c313	0.05267627
114	0xbe5edcfc	-0.21763986
115	0xbec6d87b	-0.38837036
116	0xbbafc87d	-0.0053644762
117	0x3c5bcfde	0.013416259
118	0x3dbc684e	0.09199582
119	0xbe86fd7b	-0.26365265
120	0xbd1ebe21	-0.03875554
121	0xbe0d30f2	-0.13788202
122	0xbdd4f6f9	-0.10398669
123	0xbe6364ba	-0.22206393
124	0xbe7ff0df	-0.24994229
125	0xbdab932c	-0.0837768
126	0x3db1d416	0.0868303
127	0xbe8f8288	-0.28029275
128	0x3c55f408	0.01305867
129	0x3d727c72	0.05920071
130	0x3d9dddc9	0.07708318
131	0x3d822afd	0.063558556
132	0x3e12ab22	0.14323094
133	0xbd78fa7b	-0.06078575
134	0x3d8be63b	0.06831022
135	0xbdae1a9d	-0.0850117
136	0xbd5f2ff0	-0.054489076
137	0x3d3b5bab	0.04574172
138	0x3b241bf3	0.0025041073
139	0xbd1e0681	-0.03858042
140	0x3bc44703	0.0059899106
141	0xbda705d6	-0.0815541
142	0x3de1920b	0.110141836
143	0xbe46db2f	-0.1941955
144	0xbca08b90	-0.019597799
145	0xbddd0b59	-0.1079318
146	0x3d48c0dc	0.04901205
147	0xbd04ed69	-0.032452974
148	0xbde4ac60	-0.111656904
149	0xbdfc3b78	-0.1231603
150	0x3e2b8b53	0.16752367
151	0xbe3548ab	-0.17703502
152	0x3e046816	0.1293033
153	0x3cb81429	0.02247055
154	0xbdaaee13	-0.0834619
155	0x3b5cc2cc	0.0033685444
156	0x3e0f5135	0.13995822
157	0x3e0a587e	0.1351032
158	0x3d2ec74c	0.042670533
159	0x3d283acd	0.0410717
160	0xbd8244f6	-0.063608095
161	0x3da12678	0.078686655
162	0xbe009c44	-0.1255961
163	0xbc976ac3	-0.018483525
164	0x3da10430	0.07862127
165	0x3d1bce85	0.03803875
166	0xbde98bfd	-0.11403654
167	0x3db1a901	0.08674813
168	0x3c99588f	0.018718986
169	0x3d976c34	0.07393685
170	0x3d805393	0.062659405
171	0xbc8bee51	-0.017081412
172	0x3dc3e4a0	0.09565091
173	0xbe0f427d	-0.13990207
174	0xbd71a9e2	-0.058999904
175	0xbe1dc3d5	-0.15406735
176	0x3d800caa	0.062524155
177	0xbd1cf6d2	-0.038321324
178	0xbda770ab	-0.081757866
179	0xbda0551c	-0.07828733
180	0xbd11a592	-0.03555829
181	0x3d50bd80	0.05096197
182	0x3d255db8	0.04037258
183	0x3d3ce5e9	0.046117697
184	0x3c160163	0.009155604
185	0x3d8ff65f	0.070294134
186	0x3c75678d	0.014978302
187	0x3e057c2b	0.13035648
188	0x3cfaa924	0.03059823
189	0xbe21bcfd	-0.1579475
190	0xbdb3c6da	-0.08778162
191	0x3ddb9060	0.10720897

rnn.weight_ih_l1 f4 [192, 64]
0	0x3dbf9f32	0.09356536
1	0xbd1d4269	-0.03839341
2	0x3cc9bc6f	0.024625985
3	0xbdd0a55f	-0.10187792
4	0xbd7a64a2	-0.061131127
5	0x3c8726b4	0.016497947
6	0xbdd851e4	-0.105624944
7	0xbdfb3204	-0.12265399
8	0x3e4466da	0.1917986
9	0x3c18bc75	0.009322275
10	0x3ea33a26	0.318803
11	0x3e6962b7	0.22791563
12	0x3d53d065	0.051712412
13	0xbb87f44c	-0.0041489955
14	0xbdb77fc8	-0.08959919
15	0x3e2eeb36	0.17081913
16	0xbdb7d98b	-0.0897704
17	0xbeb4fbc3	-0.3534833
18	0x3e48317c	0.19550127
19	0xbe70b63c	-0.23507017
20	0x3e3472d2	0.17621925
21	0x3db06a82	0.08614065
22	0xbd8117ad	-0.06303344
23	0xbeaf76f0	-0.3427043
24	0x3df1b3a8	0.11801845
25	0xbb102792	-0.0021996242
26	0x3e1f2d4b	0.15544622
27	0xbe0f8bca	-0.14018169
28	0x3e317fd9	0.17333926
29	0x3e8717c5	0.26385322
30	0x3eb1f8e2	0.34760195
31	0xbd9e7625	-0.07737378
32	0x3c60c059	0.013717734
33	0x3dc3dbe7	0.095634274
34	0xbd46d8de	-0.048546664
35	0xbe4ac59a	-0.19801942
36	0xbda9b22d	-0.082859375
37	0x3e687b31	0.22703244
38	0xbe02af69	-0.12762226
39	0xbcca323e	-0.02468216
40	0xbd67b736	-0.056571208
41	0x3e8dc1b8	0.27686858
42	0x3e9a3ea7	0.30125925
43	0x3b76f1a1	0.0037680643
44	0x3dc2e075	0.09515468
45	0xbd8f3f0c	-0.06994447
46	0x3e92d914	0.28681242
47	0x3dac5b06	0.08415799
48	0x3c41e1f3	0.011833656
49	0x3e01da3f	0.1268091
50	0x3bb6aa5f	0.005574509
51	0x3df31ced	0.118707515
52	0x3e382b12	0.1798518
53	0xbe211453	-0.1573041
54	0xbcc633fc	-0.02419471
55	0xbd25976c	-0.04042761
56	0x3de5e493	0.11225238
57	0x3da5dc18	0.0809862
58	0x3e10dd9c	0.14147037
59	0x3e01dacb	0.12681119
60	0xbd313d13	-0.043271136
61	0x3ce5d5e9	0.028056102
62	0x3ee0d7c0	0.43914604
63	0xbe1870df	-0.14886807
64	0xbe747fec	-0.23876923
65	0x3c7f6438	0.015587859
66	0x3d884a34	0.06654778
67	0xbe3e11ef	-0.18561529
68	0x3e0769f9	0.13224019
69	0x3de9ac70	0.11409843
70	0x3d5ecd36	0.054394923
71	0x3d9e770c	0.0773755
72	0x3d0480fe	0.03234958
73	0xbbc8c593	-0.0061270683
74	0xbe83e45a	-0.25760156
75	0x3c9e07a9	0.019290762
76	0x3e1363e6	0.14393577
77	0x3e17fa57	0.14841591
78	0xbd0506ab	-0.032477062
79	0xbe025d94	-0.1273101
80	0x3e33bbc4	0.17552096
81	0xbd48dd32	-0.049039073
82	0x3d5449d3	0.051828217
83	0xbe6bf188	-0.23041356
84	0xbcecfde0	-0.02892965
85	0xbeab3acf	-0.33443305
86	0xbe29d3b7	-0.16584669
87	0x3d22d963	0.039758097
88	0x3d5b4db4	0.0535409
89	0x3daa6e64	0.083218366
90	0xbd4236ce	-0.047415547
91	0xbd3878aa	-0.04503695
92	0xbd8b1007	-0.06790166
93	0x3cc49630	0.023997396
94	0xbd94d05c	-0.07266304
95	0x3c0d0350	0.008606747
96	0x3e60b171	0.21942689
97	0x3e7905e4	0.24318653
98	0xbd67323c	-0.05644439
99	0x3d529c58	0.051418632
100	0x3e4e3dec	0.20140809
101	0xbed3df10	-0.4138112
102	0xbd9ce752	-0.07661308
103	0x3e136901	0.14395525
104	0x3d82ae92	0.06380953
105	0xbe3bd572	-0.18343142
106	0xbda61288	-0.08109003
107	0xbeabfa80	-0.33589554
108	0xbe125269	-0.1428925
109	0x3d6c49e6	0.057687663
110	0xbca7e5c3	-0.020495301
111	0xbd5f1d80	-0.054471493
112	0x3a843330	0.0010086056
113	0xbdb61ff8	-0.08892816
114	0xbe2394bc	-0.15974706
115	0xbc7f1231	-0.015568302
116	0xbbdbcf5a	-0.006708068
117	0xbdae8b9c	-0.08522722
118	0xbe47be98	-0.195063
119	0xbe45c05f	-0.19311665
120	0x3cc83868	0.02444096
121	0xbe031ee7	-0.12804757
122	0xbe11bdd4	-0.1423257
123	0xbe1068f4	-0.14102536
124	0x3e24248b	0.16029565
125	0xbe2f7622	-0.17134908
126	0xbe18f24f	-0.14936183
127	0x3e19f4fd	0.15034862
128	0x3eb6d9f7	0.3571317
129	0x3c0b6e88	0.008510239
130	0xbda3ea53	-0.08003678
131	0xbd0dd654	-0.034628227
132	0x3e89c10a	0.2690509
133	0xbe676d86	-0.22600374
134	0x3bae7b17	0.005324732
135	0xbe53bbf4	-0.20677167
136	0x3dbd0621	0.092296846
137	0xbccdbd32	-0.02511463
138	0x3dcd50f0	0.10025203
139	0xbe4ec246	-0.20191297
140	0xbbb532ca	-0.005529736
141	0xbdeaf9e7	-0.11473446
142	0xbdee376a	-0.11631663
143	0x3e2e6d25	0.17033823
144	0x3d83d530	0.06437147
145	0x3cea7bd9	0.028623508
146	0x3d3e32fe	0.04643535
147	0x3dd0d44a	0.10196741
148	0xbd222a3e	-0.039591067
149	0x3d942d5e	0.072352156
150	0x3d38cb92	0.045116015
151	0xbe674e70	-0.22588515
152	0x3e8eeaff	0.27913663
153	0xbb2a7f91	-0.0026015977
154	0xbc3a8b6c	-0.01138578
155	0x3e5a71ee	0.21332523
156	0x3d9d8d57	0.07692974
157	0x3e65152c	0.22371358
158	0xbd974cf2	-0.07387723
159	0x3d72dbe2	0.059291728
160	0xbd9541c8	-0.072879374
161	0xbe4cd195	-0.20001824
162	0x3e301b7d	0.17197986
163	0xbda8b531	-0.082376845
164	0xbc7b199d	-0.015325931
165	0x3cc2627a	0.023728598
166	0x3ad19ead	0.0015992724
167	0xbe47ea08	-0.1952287
168	0xbe222e2b	-0.15837924
169	0xbe631a68	-0.22178042
170	0x3cdbf270	0.026849002
171	0xbe75cce9	-0.24003948
172	0xbd995c93	-0.0748836
173	0x3d2733b1	0.04082078
174	0xbd326051	-0.043548886
175	0xbeac0ae4	-0.3360206
176	0x3dc752b9	0.09732575
177	0xbe498236	-0.19678578
178	0x3deaf524	0.11472538
179	0x3d563672	0.052298017
180	0x3e3ada33	0.18247299
181	0x3d990417	0.07471483
182	0x3e0f4bd6	0.13993773
183	0xbc44685c	-0.011987772
184	0x3d92f46d	0.07175527
185	0xbe75ce8e	-0.24004576
186	0xbe8712d0	-0.2638154
187	0x3dcc2de0	0.099696875
188	0xbde031d7	-0.10947006
189	0xbdc71a6f	-0.09721839
190	0xbe7ec6d2	-0.24880531
191	0x3d954f1c	0.072904795
192	0xbe45ccd0	-0.19316411
193	0x3c0d5ec7	0.008628554
194	0x3e83b802	0.25726324
195	0x3df79170	0.12088287
196	0xbc7f73e9	-0.0155916
197	0xbda76f70	-0.08175552
198	0xbe65f466	-0.22456512
199	0xbb48f8c8	-0.0030665863
200	0x3d687b88	0.056758434
201	0xbe2199e5	-0.15781362
202	0xbdb28d83	-0.087183975
203	0x3e213d88	0.15746129
204	0xbd22849d	-0.03967725
205	0x3d42123f	0.047380682
206	0xbd7cf3ec	-0.06175606
207	0xbe6c548e	-0.2307913
208	0xbe60a46b	-0.2193772
209	0x3c6715cd	0.014104319
210	0x3ddf7d38	0.109125555
211	0xbdabc1dd	-0.08386586
212	0x3bb9070d	0.0056465925
213	0xbda81737	-0.08207553
214	0x3e051d06	0.12999353
215	0xbddad366	-0.10684852
216	0x3b99c788	0.0046929754
217	0x3e364e2c	0.17803258
218	0xbd723224	-0.05912985
219	0x3dad1849	0.08451898
220	0xbbc8eb5e	-0.0061315736
221	0xbc8e816a	-0.017395694
222	0x3dcaf56b	0.09910091
223	0xbd818215	-0.06323639
224	0xbeb9df80	-0.3630333
225	0x3d5ec6aa	0.05438868
226	0xbc0b9c8b	-0.0085212095
227	0xbe3cc0c4	-0.18432909
228	0x3d4ee7d6	0.050514065
229	0xbdf88396	-0.12134473
230	0xbdf70bdc	-0.12062809
231	0xbd349df6	-0.044095956
232	0xbcef9f2e	-0.029250707
233	0xbe041946	-0.12900266
234	0x3e938d68	0.28818822
235	0x3ca56fd4	0.020194925
236	0x3e946c4d	0.28988877
237	0x3d391f20	0.0451957
238	0x3b816abd	0.003949492
239	0x3e807a84	0.25093472
240	0x3e58fa15	0.21189149
241	0x3cab8084	0.020935304
242	0x3ecbcd21	0.39804938
243	0x3df4e50e	0.11957751
244	0x3c5ab460	0.013348669
245	0xbdb200d2	-0.08691563
246	0xbd1d8a46	-0.038461946
247	0x3e912ed3	0.28356037
248	0x3da190f1	0.078889735
249	0x3d7cba5a	0.061701156
250	0x3c681295	0.014164587
251	0xbe1583eb	-0.14601104
252	0x3e1d4849	0.15359606
253	0xbdac7b85	-0.08421997
254	0x3ec2d08d	0.38049737
255	0xbd328a3a	-0.043588854

rnn.weight_hh_l1 f4 [192, 64]
0	0xbe86eb61	-0.26351455
1	0x3dd15da6	0.1022294
2	0x3d957669	0.072979756
3	0x3d32fb84	0.043696895
4	0xbe5f8cf3	-0.21831112
5	0xbd85b5c5	-0.065288104
6	0x3e2c6e28	0.16838896
7	0xbe8a1c32	-0.26974636
8	0xbab96b20	-0.0014146306
9	0x3d1179dc	0.035516605
10	0xbda3eca2	-0.080041185
11	0x3dc3cbec	0.095603794
12	0xbc4b4db7	-0.012408665
13	0x3dcef7f8	0.1010589
14	0x3d2c571e	0.04207527
15	0x3d93dbec	0.07219681
16	0xbd93f605	-0.07224659
17	0xbd603ba6	-0.054744385
18	0xbdb36eb5	-0.0876135
19	0xbd45cae2	-0.048289187
20	0xbd9ee115	-0.07757775
21	0x3e2d4dc6	0.169242
22	0xbe3bf2b6	-0.18354306
23	0x3d278cc4	0.04090573
24	0x3d8defd7	0.069305114
25	0xbe238395	-0.15968163
26	0x3d4ac3b3	0.04950304
27	0x3e030f4f	0.12798809
28	0x3d386950	0.04502231
29	0xbe03daf6	-0.12876496
30	0x3e818771	0.25298646
31	0x3d9efd92	0.077632084
32	0xbd861dd8	-0.06548661
33	0x3e3ed645	0.18636425
34	0x3e2ad538	0.16682899
35	0x3cfdbe9a	0.030974675
36	0xbcd032df	-0.025414882
37	0xbd923951	-0.071398385
38	0x3e804995	0.2505614
39	0x3ede6e04	0.4344331
40	0x3e27d2fe	0.16389081
41	0x3d5eb327	0.05437007
42	0x3d994cdc	0.07485363
43	0x3e6fbb03	0.23411183
44	0x3d9f5339	0.07779545
45	0xbdd287d8	-0.102798164
46	0x3ceef11c	0.029167704
47	0xbcd5db2e	-0.02610549
48	0xbe0bdc3a	-0.13658229
49	0x3da31f9a	0.07965012
50	0xbe94e49a	-0.2908066
51	0x3e272575	0.16322882
52	0xbe2d89f3	-0.16947155
53	0x3c91a432	0.01777849
54	0xbd376ad6	-0.04477962
55	0xbe053952	-0.13010147
56	0xbdb627c2	-0.08894302
57	0xbce340a8	-0.027740791
58	0x3e47ac38	0.1949929
59	0xbe3ab9d0	-0.18234944
60	0xbe4b15e8	-0.19832575
61	0xbc848fe3	-0.016181892
62	0x3b3106d9	0.0027012138
63	0x3dad6db2	0.08468188
64	0xbe1fd7a7	-0.15609609
65	0xbd50de58	-0.050993294
66	0x3d0f5f27	0.035002854
67	0x3dded145	0.10879759
68	0x3e7f3f4d	0.24926491
69	0xbe9b6570	-0.30350828
70	0xbdddf87b	-0.108384095
71	0xbd04a0df	-0.03237998
72	0xbd964d48	-0.07338959
73	0xbea37567	-0.31925508
74	0x3e4a5ab4	0.19761163
75	0xbe5c5d94	-0.21520072
76	0x3b806a86	0.0039189486
77	0x3e2f192c	0.17099446
78	0xbe03ce7c	-0.12871736
79	0x3e0def2a	0.13860765
80	0xbdbd3574	-0.09238711
81	0xbd008ffc	-0.031387314
82	0xbe54cbb2	-0.20780829
83	0x3e1c857d	0.15285297
84	0x3e96dc8a	0.29465133
85	0xbe16053b	-0.14650433
86	0xbe067ef6	-0.13134369
87	0xbd45bdd0	-0.048276722
88	0xbd45d926	-0.048302792
89	0xbe299790	-0.16561723
90	0xbe23f50f	-0.16011451
91	0x3ce7c468	0.028291896
92	0xbe6ed5a2	-0.23323682
93	0x3d762d44	0.060101762
94	0xbccf49d2	-0.025303755
95	0x3e724277	0.23658167
96	0xbacd03b1	-0.0015641359
97	0x3e16ca1c	0.14725536
98	0xbc342fac	-0.010997694
99	0xbe686456	-0.22694525
100	0x3e602872	0.21890429
101	0x3d99c9f8	0.075092256
102	0x3e249592	0.16072682
103	0xbe922096	-0.28540486
104	0x3cbc9dcc	0.023024462
105	0x3e44c112	0.19214275
106	0x3df2b4ff	0.118509285
107	0xbcf08145	-0.029358516
108	0x3e083bbc	0.13304037
109	0x3e30f9be	0.17282769
110	0x3e211e27	0.15734158
111	0x3df1199e	0.11772464
112	0x3daf93bf	0.08573102
113	0x3c9e7755	0.019344011
114	0x3edb5c69	0.4284394
115	0x3e6dd535	0.23225863
116	0xbe873b88	-0.26412606
117	0xbe58a1a1	-0.21155407
118	0xbe4d2b65	-0.20036085
119	0xbe4b14e0	-0.19832182
120	0x3e00eb90	0.1258986
121	0xbe03456d	-0.12819453
122	0xbdd3bbf3	-0.10338583
123	0x3d8f52e0	0.06998229
124	0xbe83c349	-0.25734928
125	0x3e338819	0.17532386
126	0x3e0d9292	0.13825443
127	0xbd1ad1d8	-0.03779778
128	0xbca432b9	-0.020043718
129	0xbd14787f	-0.036247727
130	0x3cb11eef	0.021621196
131	0x3dceb6f6	0.10093491
132	0x3dff937e	0.12479304
133	0xbd4d2212	-0.05008132
134	0x3da5f72a	0.081037834
135	0x3dd5c16f	0.10437285
136	0xbdff190d	-0.1245595
137	0x3e29490c	0.16531771
138	0x3e106bf5	0.14103682
139	0xbe1699c0	-0.14707088
140	0x3e56e2c6	0.20984945
141	0xbd51dae8	-0.051234156
142	0xbe1aa62c	-0.15102452
143	0x3eeccbe9	0.4624932
144	0x3c35efd4	0.011104543
145	0x3c7dc2b5	0.015488316
146	0x3e4b47c9	0.19851603
147	0x3dcfed77	0.10152715
148	0xbe055eab	-0.13024394
149	0xbe3c07ef	-0.18362401
150	0x3def85fb	0.116954766
151	0xbec982cb	-0.393576
152	0x3d747081	0.059677605
153	0xbe8ce8d0	-0.27521372
154	0x3e93206d	0.28735676
155	0x3e9bc497	0.30423424
156	0x3d48d6d5	0.049033005
157	0xbc5d9546	-0.013524359
158	0xbe4e3ec1	-0.20141126
159	0x3d8305fc	0.06397626
160	0xbd1617bb	-0.036643725
161	0xbec200b7	-0.3789117
162	0xbd8fb354	-0.07016626
163	0xbdd02bf2	-0.10164632
164	0x3d04921b	0.0323659
165	0x3e856c8f	0.26059386
166	0xbe64806a	-0.22314611
167	0xbdbc9c4a	-0.09209497
168	0x3d99a843	0.075027965
169	0xbcccb890	-0.02499035
170	0xb813c588	-3.5231496e-05
171	0xbd9ca4cd	-0.07648621
172	0xbea09cac	-0.3136953
173	0xbda42316	-0.080145046
174	0xbe4920d8	-0.19641435
175	0xbb8ecd85	-0.004357996
176	0x3dfaf97c	0.122546166
177	0x3df03162	0.11728169
178	0xbd22e8e2	-0.039772876
179	0x3b8939fa	0.0041878195
180	0xbd50eb60	-0.05100572
181	0x3dcc2eb9	0.09969849
182	0x3e9f2a1d	0.31086817
183	0x3df39688	0.11893946
184	0xbe3de066	-0.18542632
185	0x3e35c5f6	0.17751297
186	0xbeae18e8	-0.34003377
187	0xbe7cf841	-0.24704076
188	0x3e873c68	0.26413274
189	0xbd5eb7aa	-0.054374374
190	0xbc86469d	-0.016391093
191	0xbe1ac413	-0.15113859
192	0xbe8934d8	-0.2679813
193	0xbd33ef67	-0.043929484
194	0xbbf1ca73	-0.00737887
195	0xbe007f0f	-0.12548469
196	0xbe6edba0	-0.23325968
197	0xbc6e6dc6	-0.014552539
198	0x3e0179e8	0.1264416
199	0xbebb60a0	-0.36597157
200	0x3e4fc9d8	0.20291841
201	0xbd9154a2	-0.070962206
202	0x3d137c23	0.036007058
203	0xbe83caf7	-0.25740787
204	0xbc71fcfe	-0.014769791
205	0xbd149bb1	-0.03628129
206	0x3ed27e98	0.41112208
207	0xbe1c5c56	-0.15269598
208	0xbda95a84	-0.082692176
209	0xbd636fb4	-0.05552645
210	0x3b265c48	0.0025384594
211	0xbe317274	-0.17328817
212	0xbeaa608f	-0.33276793
213	0xbe0451d2	-0.12921837
214	0x3d1c2426	0.03812041
215	0x3e5166ca	0.20449367
216	0xbdee6361	-0.11640049
217	0x3df9169a	0.12162514
218	0xbc8294f3	-0.015940165
219	0x3e6aed52	0.22942093
220	0x3d514d0a	0.05109886
221	0x3dd85e67	0.10564881
222	0x3ebe7488	0.3719828
223	0xbe6ff3a8	-0.23432791
224	0x3e0fc684	0.14040571
225	0x3de538f8	0.111925066
226	0xbe1b1d57	-0.15147911
227	0xbda6ce6d	-0.08144841
228	0xbdc90980	-0.09816265
229	0x3e39311e	0.18085143
230	0x3dd72c1e	0.105064616
231	0xbe1c8a2b	-0.15287082
232	0x3cae1056	0.021248024
233	0xbe4f74ca	-0.20259395
234	0xbe5dbc1d	-0.21653791
235	0xbd3303f8	-0.043704957
236	0x3e85f134	0.26160586
237	0xbe6ce9a0	-0.23135996
238	0x3d329e94	0.043608263
239	0x3d0bc4cc	0.034123227
240	0x3e138ef5	0.14410003
241	0xbd147fc3	-0.036254656
242	0x3e16d232	0.1472862
243	0x3bfcebc2	0.007718534
244	0xbea062be	-0.31325334
245	0x3cc20ce5	0.02368779
246	0xbe134bd0	-0.14384389
247	0xbf00543f	-0.5012855
248	0x3da231d7	0.079196624
249	0x3dc7ad80	0.097498894
250	0xbe001680	-0.12508583
251	0xbded145b	-0.11576148
252	0x3de84abc	0.113423795
253	0xbc223a8d	-0.009901655
254	0x3ed1ba5e	0.409625
255	0x3bed9bd5	0.0072512426

rnn.bias_ih_l1 f4 [192]
0	0xbdde8b1c	-0.10866377
1	0xbddfd4d4	-0.109292656
2	0x3e275cf4	0.16344053
3	0x3c83fb96	0.016111176
4	0xbd9f425f	-0.07776331
5	0x3c3293f0	0.010899529
6	0x3c4c2fd2	0.012462573
7	0x3d32593e	0.04354214
8	0x3bbb1c82	0.0057101855
9	0x3d4f45e7	0.050603773
10	0x3d87e12d	0.06634746
11	0x3e0ef625	0.13961084
12	0xbd85518c	-0.065096945
13	0xbdd46edd	-0.10372708
14	0xbc59f814	-0.013303775
15	0xbda3daca	-0.08000715
16	0x3e6a1f12	0.22863415
17	0x3e4d5402	0.20051578
18	0x3e9e16d2	0.30876786
19	0xbcf65a80	-0.03007245
20	0x3d512de4	0.051069155
21	0xbd0bc9ee	-0.034128122
22	0x3e40be30	0.18822551
23	0x3b7179be	0.0036846246
24	0x3d6ce2f3	0.057833623
25	0x3d201918	0.03908643
26	0x3ba9456a	0.0051657455
27	0x3da51f1b	0.080625735
28	0xbd03b6e6	-0.032156847
29	0xbd934574	-0.071909815
30	0xbc8f97f3	-0.01752851
31	0x3df69d75	0.12041751
32	0x3d843b59	0.06456632
33	0x3e22c48f	0.15895294
34	0x3db27644	0.08713964
35	0xbd2e7456	-0.042591415
36	0xbce24d51	-0.027624758
37	0x3e3aca08	0.18241131
38	0x3dbdeebb	0.0927405
39	0x3e21f4e7	0.15816079
40	0x3d741793	0.059592795
41	0x3e0fcdff	0.14043425
42	0x3da2d83c	0.079514
43	0x3d9560d9	0.07293863
44	0x3dbb8ef8	0.091581285
45	0x3db0b9e2	0.08629204
46	0x3d25899b	0.040414434
47	0x3db79870	0.08964622
48	0x3e34ce8e	0.1765692
49	0x3e2fd5a3	0.1717134
50	0x3d5fa7c1	0.054603342
51	0xbdc9e2ef	-0.09857737
52	0x3c743698	0.014905594
53	0xbc2ad712	-0.010427253
54	0x3e0fa741	0.14028646
55	0x3dfcc917	0.12343042
56	0xbdc9c783	-0.09852507
57	0x3de10338	0.10986942
58	0x3dec5ac5	0.115407504
59	0x3e1e6a6e	0.15470287
60	0x3c768a59	0.015047633
61	0x3ce21b6a	0.027600963
62	0xbbbab215	-0.0056974986
63	0xbd8de849	-0.069290705
64	0xbd953ffe	-0.07287596
65	0xbcb52d68	-0.022116378
66	0x3e240312	0.16016796
67	0xbde4cc78	-0.11171812
68	0xbe077ed3	-0.13231973
69	0xbe2588cc	-0.16165465
70	0xbd97ba42	-0.07408573
71	0x3c298907	0.010347611
72	0x3de33322	0.11093737
73	0xba43e1c2	-0.00074723
74	0xbe3da896	-0.18521342
75	0x3e4ce186	0.20007905
76	0xbd46c5b8	-0.048528403
77	0xbd04dd88	-0.03243783
78	0xbccb5425	-0.024820397
79	0xbd6390e3	-0.055558097
80	0x3ca49b2a	0.02009352
81	0x3e07371b	0.13204615
82	0x3d2bb7be	0.041923277
83	0xbcdbec2d	-0.026846016
84	0x3ce9e1ce	0.028550055
85	0x3e9b4941	0.30329326
86	0x3c19e82d	0.009393734
87	0xbe15090b	-0.14554231
88	0xbd447d55	-0.04797109
89	0x3e150d0a	0.14555755
90	0x3d002ad0	0.03129083
91	0xbde2ca25	-0.11073712
92	0xbd3545a8	-0.044255883
93	0x3e08a225	0.13343103
94	0xbc821ffa	-0.015884388
95	0xbe08afe2	-0.13348344
96	0x3cee46de	0.029086526
97	0xbdbf38b5	-0.09336988
98	0x3e35ec89	0.17766012
99	0x3da696eb	0.08134254
100	0x3a20a0b2	0.0006127461
101	0x3deff273	0.117161654
102	0x3d09b4cc	0.033619687
103	0xbe5205be	-0.20510003
104	0xbd7ad724	-0.06124033
105	0x3d0e89a7	0.034799244
106	0xbe2cef5c	-0.16888183
107	0xbe15226f	-0.14563917
108	0x3d040af6	0.032237016
109	0x3e146bd8	0.14494264
110	0xbe640c20	-0.2227025
111	0xbcbb019c	-0.022827916
112	0xbdfb65ac	-0.12275252
113	0x3c3b283e	0.011423169
114	0x3e116d12	0.14201763
115	0xbe778d54	-0.24175006
116	0xbd1da4ce	-0.038487248
117	0x3eb601b3	0.3554817
118	0xbe53fb9e	-0.20701453
119	0xbd676266	-0.056490324
120	0xbdb128e0	-0.086503744
121	0xbe106d9c	-0.14104313
122	0xbd592a62	-0.053018935
123	0x3db1c2c8	0.0867973
124	0xbd0d063b	-0.03442977
125	0x39e203b0	0.00043108827
126	0x3d69b9e7	0.057062056
127	0xbe9bccf9	-0.3042982
128	0x3d4bce34	0.049757197
129	0xbdb88ca1	-0.09011198
130	0x3bf2d569	0.0074106944
131	0x3c48fc68	0.01226721
132	0x3e05044c	0.1298992
133	0x3d169398	0.03676185
134	0xbc92ab87	-0.017904056
135	0x3dd98600	0.106212616
136	0xbd6c221a	-0.05764971
137	0xbc6e4a7f	-0.014544128
138	0x3d4b5f39	0.04965136
139	0x3c8722c6	0.016496073
140	0x3d326a80	0.043558598
141	0xbd225d32	-0.03963966
142	0xbda8571d	-0.082197405
143	0x3c2bb3f8	0.01047992
144	0xbe194d4c	-0.14970893
145	0xbc237e9b	-0.009978916
146	0x3df4a8aa	0.119462326
147	0x3e5b4979	0.21414746
148	0xbe16681c	-0.14688152
149	0xbd4ee326	-0.050509594
150	0xbd4e7bc3	-0.050410997
151	0xbdefc88c	-0.11708173
152	0x3d0c578f	0.03426319
153	0x3dc6c50a	0.09705551
154	0xbd54abc0	-0.051921606
155	0x3d97f001	0.07418824
156	0x3d3e55fd	0.046468724
157	0xbe2a29ae	-0.16617462
158	0x3d7835e7	0.06059828
159	0x3e0567ba	0.1302785
160	0xbdb7c29d	-0.089726664
161	0xbe243e2b	-0.1603934
162	0xbd2ef832	-0.042717166
163	0xbd892844	-0.06697133
164	0x3dfd0c96	0.12355916
165	0x3d3d66d0	0.046240628
166	0x3d822c26	0.06356077
167	0x3d30f03e	0.043197863
168	0x3cdf259d	0.027239615
169	0x3dab9806	0.083786055
170	0x3cda9afc	0.02668523
171	0x3b563740	0.003268674
172	0x3d1f5f13	0.03890903
173	0x3da9f5fa	0.082988694
174	0xbdeb5127	-0.11490088
175	0x3d3144e6	0.043278597
176	0xbde29f16	-0.110654995
177	0x3db51b40	0.08843088
178	0xbcbd62bb	-0.023118367
179	0xbd7c22a5	-0.061556477
180	0x3cea5ca2	0.028608624
181	0x3c3eda93	0.011648792
182	0xbc57a15b	-0.013161029
183	0x3c1a9072	0.0094338525
184	0xbc63d59d	-0.01390591
185	0xbd1bfadb	-0.03808103
186	0xbc0d9d83	-0.008643511
187	0x3c33fcaa	0.010985533
188	0x3e51f388	0.20503056
189	0x3de29a8b	0.11064633
190	0x3c9ef427	0.01940353
191	0xbdafac52	-0.08577789
